…
rId":"10539032204957163813"}},"outputId":"19d8de6a-b423-419d-b585-cf12d75cf172"},"source":["model=create_model()\n","model.summary()"],"execution_count":19,"outputs":[{"output_type":"stream","text":["Model: \"model\"\n","_________________________________________________________________\n","Layer (type)                 Output Shape              Param #   \n","=================================================================\n","input_1 (InputLayer)         [(None, 15, 15, 15, 1)]   0         \n","_________________________________________________________________\n","conv3d (Conv3D)              (None, 15, 15, 15, 64)    1792      \n","_________________________________________________________________\n","conv3d_1 (Conv3D)            (None, 15, 15, 15, 64)    110656    \n","_________________________________________________________________\n","max_pooling3d (MaxPooling3D) (None, 8, 8, 8, 64)       0         \n","_________________________________________________________________\n","conv3d_2 (Conv3D)            (None, 8, 8, 8, 128)      221312    \n","_________________________________________________________________\n","conv3d_3 (Conv3D)            (None, 8, 8, 8, 128)      442496    \n","_________________________________________________________________\n","max_pooling3d_1 (MaxPooling3 (None, 4, 4, 4, 128)      0         \n","_________________________________________________________________\n","conv3d_4 (Conv3D)            (None, 4, 4, 4, 256)      884992    \n","_________________________________________________________________\n","conv3d_5 (Conv3D)            (None, 4, 4, 4, 256)      1769728   \n","_________________________________________________________________\n","conv3d_6 (Conv3D)            (None, 4, 4, 4, 256)      1769728   \n","_________________________________________________________________\n","max_pooling3d_2 (MaxPooling3 (None, 2, 2, 2, 256)      0         \n","_________________________________________________________________\n","conv3d_7 (Conv3D)            (None, 2, 2, 2, 512)      3539456   \n","_________________________________________________________________\n","conv3d_8 (Conv3D)            (None, 2, 2, 2, 512)      7078400   \n","_________________________________________________________________\n","conv3d_9 (Conv3D)            (None, 2, 2, 2, 512)      7078400   \n","_________________________________________________________________\n","max_pooling3d_3 (MaxPooling3 (None, 1, 1, 1, 512)      0         \n","_________________________________________________________________\n","conv3d_10 (Conv3D)           (None, 1, 1, 1, 512)      7078400   \n","_________________________________________________________________\n","conv3d_11 (Conv3D)           (None, 1, 1, 1, 512)      7078400   \n","_________________________________________________________________\n","conv3d_12 (Conv3D)           (None, 1, 1, 1, 512)      7078400   \n","_________________________________________________________________\n","max_pooling3d_4 (MaxPooling3 (None, 1, 1, 1, 512)      0         \n","_________________________________________________________________\n","flatten (Flatten)            (None, 512)               0         \n","_________________________________________________________________\n","dense (Dense)                (None, 4096)              2101248   \n","_________________________________________________________________\n","dropout (Dropout)            (None, 4096)              0         \n","_________________________________________________________________\n","dense_1 (Dense)              (None, 4096)              16781312  \n","_________________________________________________________________\n","dropout_1 (Dropout)          (None, 4096)              0         \n","_________________________________________________________________\n","dense_2 (Dense)              (None, 14)                57358     \n","=================================================================\n","Total params: 63,072,078\n","Trainable params: 63,072,078\n","Non-trainable params: 0\n","_________________________________________________________________\n"],"name":"stdout"}]},{"cell_type":"code","metadata":{"id":"RfR8hFJ2YW6c","executionInfo":{"status":"ok","timestamp":1624876691664,"user_tz":-180,"elapsed":450,"us
…
